IRIS/Models/nn3_500.pth (torch, 13911 bytes, 6 tensors)

layer1.weight f4 [50, 4]
0	0xbed0ff4b	-0.40819773
1	0x3f0580db	0.5214974
2	0xbea17ce4	-0.31540596
3	0xbed5650b	-0.41678652
4	0xbe33a8d8	-0.17544878
5	0x3ecd560e	0.40104717
6	0xbf1259a5	-0.57168037
7	0x3cff9437	0.031198604
8	0x3e416e68	0.18889773
9	0xbf1d70ed	-0.61500436
10	0x3ec7427e	0.38917917
11	0x3edc3b34	0.43013918
12	0x3e61f635	0.22066577
13	0xbf37ea29	-0.71841675
14	0x3f3c5407	0.73565716
15	0x3ee9d2df	0.45668694
16	0xbe5f25d8	-0.2179178
17	0xbf1d9982	-0.6156236
18	0x3e7237d9	0.23654117
19	0x3ed25ed4	0.41087973
20	0x3f1d231e	0.6138171
21	0xbe90253e	-0.28153414
22	0xbee8cc26	-0.45468253
23	0xbe0e66d0	-0.13906407
24	0x3ec43a04	0.38325512
25	0xbd74e291	-0.059786383
26	0x3e9d2c12	0.30697685
27	0x3daac426	0.083381936
28	0x3f2a8780	0.66613007
29	0xbf17b06a	-0.5925356
30	0xbf0e9f0f	-0.55711454
31	0xbe36032b	-0.17774646
32	0x3c811b2c	0.015760027
33	0xbea64b19	-0.3247917
34	0x3ec3a546	0.3821203
35	0x3ec543fb	0.38528427
36	0xbd8b383a	-0.06797834
37	0x3e9ed72a	0.31023532
38	0x3e70550e	0.23469946
39	0xbec97b1f	-0.39351746
40	0x3f1350af	0.5754499
41	0x3eca17dd	0.3947133
42	0xbebdd201	-0.37074283
43	0xbe13a828	-0.14419615
44	0x3e6e89af	0.2329471
45	0x3f39956d	0.7249363
46	0xbd8e7264	-0.06955412
47	0xbebb8da0	-0.3663149
48	0x3eb7ec0a	0.3592227
49	0xbe94c676	-0.29057664
50	0x3ed7b8ab	0.42133078
51	0x3ee0e71a	0.43926316
52	0xbf0c45ee	-0.54794204
53	0xbdf6b653	-0.12046494
54	0xbf1c6029	-0.6108423
55	0xbeb24442	-0.34817702
56	0xbf0ed72a	-0.55797064
57	0x3f02ddfc	0.5111997
58	0xbe5e55e8	-0.21712458
59	0xbe17e77a	-0.14834395
60	0x3e8436fd	0.25823203
61	0x3e4443c3	0.19166474
62	0xbef4ccb1	-0.47812417
63	0x3e872e6b	0.26402602
64	0x3eb170c1	0.34656337
65	0xbda20807	-0.07911687
66	0xbf05c677	-0.5225596
67	0xbf152848	-0.5826459
68	0x3e61e8f8	0.22061527
69	0xbf1c1c3a	-0.6098057
70	0x3ec68386	0.3877222
71	0x3e670a09	0.22562422
72	0xbf0f7a69	-0.5604616
73	0x3ef5c983	0.48005304
74	0xbf0f616c	-0.5600803
75	0xbf12351d	-0.57112294
76	0xbee3f9ad	-0.44526425
77	0xbeef75fe	-0.46769708
78	0x3cc87c24	0.024473257
79	0xbe791f59	-0.24328364
80	0x3f2081b3	0.62697905
81	0xbf211ac2	-0.62931454
82	0xbe66c77f	-0.22537039
83	0xbec12553	-0.3772379
84	0xbd3a75b4	-0.045522407
85	0xbcf7ea56	-0.030263107
86	0x3d4d79d1	0.050165
87	0xbed69bef	-0.41915843
88	0xbe2a0d1c	-0.16606563
89	0xbec36791	-0.38164952
90	0xbf22cbff	-0.63592523
91	0xbee4c881	-0.44684222
92	0xbf1eeec2	-0.62083066
93	0x3e52dbda	0.20591679
94	0xbe8e0cdc	-0.27744186
95	0xbe91d407	-0.28482077
96	0xbef107d6	-0.4707629
97	0xbf08fb62	-0.5350858
98	0xbe5c70fc	-0.21527475
99	0xbeb8df6b	-0.36107954
100	0xbf0553e3	-0.52081126
101	0xbf29a59f	-0.6626834
102	0xbed492e8	-0.4151833
103	0x3b89fa89	0.0042107743
104	0xbeb921d2	-0.36158615
105	0x3eb5b0da	0.3548649
106	0xbdf120ca	-0.11773832
107	0xbf2da397	-0.67827743
108	0xbeca52c1	-0.3951626
109	0x3ef8fae8	0.48628926
110	0xbe8500c0	-0.25977135
111	0xbf07949e	-0.52961147
112	0x3e4dd00d	0.20098896
113	0x3edbbb8b	0.4291652
114	0x3f05250a	0.5200964
115	0x3f0fffb0	0.56249523
116	0x3ed4420f	0.4145665
117	0xbf33a92b	-0.70180005
118	0x3ec0af33	0.37633666
119	0x3ea7dae0	0.32784176
120	0xbdb59dc1	-0.0886798
121	0x3ef320d2	0.47485977
122	0xbdf15c2b	-0.11785158
123	0xbe33083b	-0.17483608
124	0xbdf72678	-0.12067884
125	0x3ec1a225	0.3781902
126	0xbe8ec2ae	-0.27882904
127	0x3d99c59c	0.07508394
128	0x3f096751	0.53673273
129	0xbe3eb4fc	-0.18623728
130	0xbcf6771a	-0.030086089
131	0xbe7876d2	-0.24264076
132	0x3edcd491	0.43130925
133	0xbddff45f	-0.10935282
134	0x3ed48c48	0.41513276
135	0xbeb4867d	-0.35258856
136	0xbe5bded4	-0.21471721
137	0xbf1b7c33	-0.6073639
138	0xbe8b6098	-0.27222133
139	0xbf05d318	-0.5227523
140	0x3ef36a24	0.47541916
141	0xbd99350e	-0.074808225
142	0xbf106380	-0.56401825
143	0x3f0f3054	0.5593312
144	0x3ead2e08	0.33824182
145	0x3ec3fc71	0.38278535
146	0x3f25025a	0.64456713
147	0x3ec880d1	0.3916078
148	0xbf030307	-0.51176494
149	0xbefd7d7d	-0.49509802
150	0x3d104c34	0.035228923
151	0xbeb7a3a9	-0.3586705
152	0x3efac8c7	0.48981306
153	0xbf003fa1	-0.5009709
154	0x3e07031a	0.13184777
155	0xbe5784ec	-0.210468
156	0xbeaf9586	-0.34293765
157	0xbdbb8e05	-0.091579475
158	0xbeeb9032	-0.4600845
159	0xbea4d8a8	-0.32196546
160	0x3d92b3c1	0.071631916
161	0x3f01cc2d	0.5070217
162	0xbe7f1b4e	-0.2491276
163	0xbeb809fd	-0.3594512
164	0xbdb3edba	-0.08785577
165	0x3e9af1f0	0.3026271
166	0x3f01b148	0.50661135
167	0x3f28a1dd	0.65871984
168	0x3ec5fe56	0.38670605
169	0xbed7b054	-0.42126715
170	0x3e88ba82	0.26704794
171	0x3f140514	0.5782025
172	0xbee246bd	-0.44194594
173	0xbe33563e	-0.17513368
174	0x3f2f0d45	0.6837962
175	0x3f23995c	0.6390588
176	0xbe77cd55	-0.24199422
177	0x3eb45c75	0.3522679
178	0xbdf1d233	-0.118076704
179	0xbf0b17c1	-0.5433312
180	0xbef3b62d	-0.47599927
181	0x3e3a1399	0.18171538
182	0xbe242922	-0.16031316
183	0xbedc1504	-0.42984784
184	0x3e9234f6	0.2855603
185	0xbe92e27a	-0.28688413
186	0xbe3cfadd	-0.18455072
187	0xbe980f44	-0.29699147
188	0x3dbe69c7	0.09297519
189	0xbdcb0654	-0.09913316
190	0x3f11fb6e	0.57024276
191	0x3e7cc3f3	0.24684124
192	0x3e56f27d	0.2099094
193	0xbe561eb1	-0.20910145
194	0x3e9da76b	0.30791792
195	0x3f12a137	0.57277244
196	0x3f084350	0.5322771
197	0x3d3047ca	0.043037213
198	0x3ee41524	0.4454738
199	0x3d9e7a71	0.077381976

layer1.bias f4 [50]
0	0x3f30fcb8	0.6913562
1	0xbea4f6e2	-0.32219607
2	0xbec01456	-0.37515515
3	0xbf05d067	-0.5227112
4	0x3f096cea	0.53681815
5	0x3f1aee16	0.6051954
6	0x3e841009	0.25793484
7	0x3dfff11a	0.12497158
8	0x3f243025	0.6413596
9	0xbd7f02fb	-0.0622587
10	0x3e81d188	0.25355172
11	0x3efd9179	0.4952505
12	0x3ecc6146	0.39917964
13	0xbe201378	-0.15632427
14	0x3f209d5b	0.62740105
15	0x3f100807	0.5626225
16	0x3e6b4937	0.22977148
17	0x3e528274	0.20557576
18	0xbd8cc641	-0.068737514
19	0xbe8baaac	-0.2727865
20	0x3d45bc2a	0.04827515
21	0x3f0e4909	0.5558019
22	0xbdc86f1f	-0.0978682
23	0xbe5ecce0	-0.21757841
24	0x3e81d1de	0.25355428
25	0xbe964bbb	-0.29354653
26	0xbd2e7171	-0.042588655
27	0xbdb821ec	-0.08990845
28	0x3f08b2b7	0.533977
29	0xbdec4b12	-0.11537756
30	0x3ef994d4	0.4874636
31	0xbd030804	-0.031990066
32	0x3f090b6d	0.5353306
33	0xbf05bb59	-0.52238995
34	0x3e355e68	0.17711794
35	0x3f04076c	0.51573825
36	0xbe8a22eb	-0.26979765
37	0x3ddbc361	0.10730625
38	0x3daf7ef4	0.08569136
39	0x3d052450	0.032505333
40	0xbe71e277	-0.23621546
41	0xbe1c9fa0	-0.15295267
42	0x3ec14e03	0.3775483
43	0xbd28d6ff	-0.04122066
44	0x3dfde415	0.12397019
45	0xbe75c8d2	-0.24002388
46	0x3e820831	0.25396875
47	0xbe8473b2	-0.2586952
48	0xbe424910	-0.18973184
49	0x3edafc84	0.4277078

layer2.weight f4 [50, 50]
0	0x3e053378	0.13007915
1	0xbcd11439	-0.025522338
2	0x3e6e6ccc	0.2328369
3	0x3e23b678	0.15987575
4	0x3da88607	0.08228689
5	0xbd011474	-0.031513646
6	0x3ca83004	0.020530708
7	0x3e797a44	0.24363047
8	0x3e04d926	0.1297346
9	0x3e2fabcd	0.1715538
10	0x3e0cdd68	0.13756335
11	0x3d29d958	0.04146704
12	0x3e45100a	0.192444
13	0x3daca92d	0.08430705
14	0x3e3ca9e2	0.1842418
15	0x3db3f581	0.087870605
16	0x3d3016fd	0.042990673
17	0x3ddace53	0.106838845
18	0xbd2bb5e5	-0.041921515
19	0x3e4acc35	0.19804461
20	0x3e62e10c	0.22156161
21	0x3e0e0ddd	0.13872476
22	0x3d534971	0.05158371
23	0x3df7b785	0.120955504
24	0x3e44dd27	0.19224988
25	0x3e3b214c	0.1827442
26	0xba508b96	-0.000795537
27	0xbd5f544e	-0.05452376
28	0x3e1203d2	0.1425927
29	0x3e74c43f	0.23902987
30	0x3c9014a4	0.017587967
31	0x3cadfa5d	0.021237547
32	0x3e1bccb2	0.15214804
33	0x3e3d1361	0.18464424
34	0x3e534aa0	0.20633936
35	0x3e26c61d	0.16286512
36	0xbd81765c	-0.063214034
37	0x3d2be460	0.041965842
38	0x3d64ed6c	0.055890486
39	0x3dea5142	0.1144128
40	0x3e40cbea	0.18827787
41	0x3e41698c	0.18887919
42	0x3de855d7	0.11344498
43	0x3e2da3a1	0.1695695
44	0x3de01d6d	0.109431125
45	0x3ec339b5	0.38129964
46	0x3c949245	0.018136153
47	0x39d1339a	0.00039902033
48	0x3e41e208	0.1893388
49	0x3dcf43ec	0.10120377
50	0xbeb4e0ed	-0.35327855
51	0x3da9c363	0.0828922
52	0x3eac664c	0.33671796
53	0x3d2a0ebb	0.041517954
54	0x3dc9a84f	0.098465554
55	0xbe108368	-0.14112628
56	0xbcb01976	-0.021496516
57	0xbeb9c605	-0.3628389
58	0x3e664785	0.2248822
59	0xbccdfd04	-0.025145061
60	0xbeb98e1a	-0.36241227
61	0xbd5f550c	-0.054524466
62	0x3e226a1c	0.1586079
63	0x3cf01f66	0.029311847
64	0xbe3e04fb	-0.18556587
65	0xbda85182	-0.082186714
66	0xbd683031	-0.056686584
67	0x3e779fd3	0.24182062
68	0xbbd0f9b9	-0.0063774255
69	0x3db9ddc2	0.090755
70	0xbdfcb2c2	-0.12338783
71	0xbe86db9d	-0.26339427
72	0xbe06aa32	-0.13150862
73	0xbe0a8974	-0.13528997
74	0xbcc3f422	-0.023920123
75	0x3de4b8f6	0.11168091
76	0xbe0d571f	-0.13802765
77	0xbde61e41	-0.11236239
78	0x3e141a7e	0.14463231
79	0x3e6e8bce	0.23295519
80	0xbead0a57	-0.3379695
81	0xbd8eb8e0	-0.06968856
82	0xbe77174c	-0.24129981
83	0x3f104f28	0.5637078
84	0xbd8d8fa4	-0.06912163
85	0xbe1a0f23	-0.15044837
86	0x3e32f3cb	0.17475812
87	0xbdc13d88	-0.09435564
88	0xbd5677a1	-0.05236018
89	0xbdbbb27e	-0.09164904
90	0x3e23919d	0.15973516
91	0x3e1521e0	0.14563704
92	0x3dd5e116	0.10443322
93	0x3e838f8a	0.2569545
94	0xbe2b4fb3	-0.16729622
95	0xbd208756	-0.039191566
96	0xbe755dc5	-0.23961551
97	0x3e2e669f	0.17031334
98	0x3e4a184b	0.1973583
99	0x3dcaa439	0.09894604
100	0x3d595d3f	0.053067442
101	0x3db766d5	0.089551605
102	0x3dad816d	0.08471952
103	0x3e6d506e	0.23175213
104	0x3d97577f	0.073897354
105	0xbe4f553b	-0.20247357
106	0x3e317220	0.17328691
107	0xbe5f9052	-0.21832398
108	0xbd9b2b40	-0.07576609
109	0x3cb558f4	0.022137143
110	0xbe45351b	-0.1925854
111	0xbdd3003c	-0.10302779
112	0xbd8f87a3	-0.070082925
113	0x3e7083c1	0.2348776
114	0x3dfec885	0.1244059
115	0x3b317396	0.0027076951
116	0x3e43bc29	0.19114746
117	0x3d5a411e	0.053284757
118	0x3e51ce66	0.20488891
119	0x3e1bdcf1	0.15221001
120	0xbcb89064	-0.022529788
121	0xbe1a0e37	-0.15044485
122	0x3e4cb3f8	0.19990528
123	0x3e18fc7e	0.14940068
124	0xbd0706d9	-0.032965515
125	0x3e52687c	0.2054767
126	0x3c6d54a7	0.014485515
127	0x3cd0d940	0.025494218
128	0x3db58265	0.088627614
129	0x3e8b47e0	0.27203274
130	0xbdf0c998	-0.11757201
131	0x3e2d9539	0.16951455
132	0xbde5dc4a	-0.112236574
133	0x3efb1930	0.49042654
134	0xbd58e5a6	-0.052953385
135	0xbdd22571	-0.10261048
136	0x3de5f413	0.11228194
137	0xbd9f8ab9	-0.07790131
138	0x3dc3108c	0.095246404
139	0x3e5d3ec6	0.21605977
140	0x3d830b75	0.0639867
141	0x3d552435	0.052036483
142	0x3e2ae2ba	0.16688052
143	0x3e003099	0.12518539
144	0x3e061c40	0.13096714
145	0x3eef5e3e	0.4675159
146	0xbe63a664	-0.22231442
147	0x3e36da58	0.17856729
148	0x3e3d1e3c	0.18468565
149	0x3d5808c9	0.052742753
150	0xbcd13613	-0.02553848
151	0x3e5871a6	0.21137103
152	0xbecbf0df	-0.39832208
153	0xbe3d169c	-0.18465656
154	0x3e059b85	0.13047607
155	0x3e99b8ac	0.30023706
156	0x3e0d3ca8	0.1379267
157	0x3e8fd2b9	0.28090456
158	0x3e2ce1a8	0.16882956
159	0x3c3bc813	0.011461276
160	0x3e1f8e6f	0.15581678
161	0x3c4912a7	0.0122725135
162	0xbe02b28c	-0.12763423
163	0x3dbd3c5f	0.092400305
164	0x3dee2db7	0.11629813
165	0x3eac892d	0.33698407
166	0x3da0c92a	0.07850869
167	0x3d4b9b1d	0.049708474
168	0x3e26a78c	0.16274852
169	0xbd82302b	-0.063568436
170	0x3e89aaab	0.26888022
171	0x3e3ff6a6	0.18746433
172	0xbc130714	-0.0089738555
173	0xbd8433ce	-0.064551935
174	0x3d92d5ec	0.071697086
175	0xbdba3337	-0.090918
176	0x3c19f0ac	0.00939576
177	0x3dc89363	0.09793737
178	0x3e34c419	0.1765293
179	0xbe36da47	-0.17856704
180	0x3e76abca	0.2408897
181	0xbc8c71ef	-0.017144172
182	0x3e93f428	0.28897214
183	0xbedfab46	-0.4368536
184	0x3d8db022	0.0691836
185	0x3ebc1618	0.36735606
186	0xbe9ad853	-0.30243167
187	0x3e0e0332	0.13868406
188	0xbc31acdf	-0.010844438
189	0xbcf999ff	-0.030468939
190	0x3db8219d	0.08990786
191	0xbd22477c	-0.039618954
192	0xbe0630ee	-0.13104603
193	0xbe144b2f	-0.14481805
194	0x3e52f960	0.20602942
195	0x3e873d8e	0.2641415
196	0x3e971dd2	0.2951494
197	0xbec39d25	-0.3820583
198	0xbe9b8bd1	-0.3038011
199	0xbcb2db22	-0.021833006
200	0x3da9a649	0.082836695
201	0x3cf45fb8	0.029830799
202	0xbe59590c	-0.21225375
203	0xbe1d536c	-0.15363854
204	0xbbdffa67	-0.00683527
205	0x3d9d17cd	0.07670555
206	0x3e67f504	0.2265206
207	0x3ea5da50	0.32393122
208	0x3e952674	0.291309
209	0x3b77d6a9	0.0037817156
210	0x3df038f4	0.11729613
211	0x3e863c27	0.26217768
212	0x3cf53cd6	0.029936235
213	0x3e4f0807	0.20217906
214	0x3e3d703e	0.18499848
215	0x3de20168	0.110354245
216	0x3de8b102	0.113618866
217	0x3da8acc4	0.082360774
218	0x3dc7809b	0.097413264
219	0x3cdbf078	0.026848063
220	0x3d748d45	0.059705038
221	0x3c4b251f	0.012398987
222	0x3df72b74	0.12068835
223	0x3ca9e99c	0.020741276
224	0x3dc9bd70	0.098505855
225	0x3d5776de	0.052603595
226	0x3e0bc6bf	0.13650034
227	0x3cdaef11	0.026725324
228	0x3e0283cd	0.1274559
229	0x3d53e979	0.05173633
230	0x3ddc4d58	0.1075694
231	0x3c552d9c	0.013011362
232	0x3e2354f1	0.15950371
233	0xbf107737	-0.5643191
234	0x3e5bb0e6	0.214542
235	0x3ed6291d	0.41828242
236	0xbe97fa2f	-0.29683062
237	0x3e047521	0.12935306
238	0x3de80bb9	0.11330361
239	0x3e16a0ac	0.14709729
240	0x3d415d1a	0.04720793
241	0xbde105a5	-0.10987405
242	0x3dcae747	0.09907394
243	0xbe919367	-0.28432772
244	0x3c6e40c2	0.014541807
245	0xbe5a26a6	-0.21303806
246	0x3e3ddd11	0.18541361
247	0xbeb8e1ec	-0.36109865
248	0xbe19099b	-0.1494507
249	0x3e7db45d	0.24775834
250	0xbdd74ae5	-0.10512332
251	0xbda3fc98	-0.08007163
252	0x3cfa183e	0.030529138
253	0xbdb5766d	-0.088604786
254	0x3de6f494	0.11277118
255	0x3cc0bc6e	0.02352735

layer2.bias f4 [50]
0	0x3dcb2051	0.09918273
1	0xbe367db3	-0.17821388
2	0xbe0b1853	-0.13583498
3	0x3e1ccbff	0.15312193
4	0x3e0e0865	0.1387039
5	0x3da27e4a	0.07934244
6	0x3ce55a8a	0.027997274
7	0x3d0e9354	0.03480847
8	0x3e277c03	0.163559
9	0x3d8b10fa	0.067903474
10	0x3e8511a7	0.2599003
11	0x3d3e64ac	0.046482727
12	0x3e50628c	0.20350093
13	0x3e2ca153	0.16858415
14	0x3e0741d1	0.132087
15	0x3d82faa6	0.06395464
16	0x3dd10bce	0.1020733
17	0xbe3d57b4	-0.18490487
18	0x3e255a03	0.16147618
19	0xbe0b9d8a	-0.13634315
20	0x3c6b5cb7	0.014365367
21	0x3e81bcfa	0.2533949
22	0x3e3dbbfa	0.18528739
23	0x3ea86e0c	0.3289646
24	0xbe5f5807	-0.21810924
25	0xbe09e77d	-0.13467212
26	0x3d45d9d1	0.04830343
27	0x3d7b2a7a	0.061319806
28	0x3e597002	0.21234134
29	0xbe75c6d9	-0.24001636
30	0xbe784283	-0.24244122
31	0xbc44c324	-0.012009416
32	0xbb654c16	-0.0034987978
33	0x3d14bc1a	0.0363122
34	0xbde5ff09	-0.11230285
35	0x3e136526	0.14394054
36	0xbdc7823a	-0.097416356
37	0x3e64d180	0.22345543
38	0xbe1778ea	-0.14792219
39	0x3e88b4f5	0.2670056
40	0x3e75479f	0.23953103
41	0x3dbaaf32	0.09115447
42	0xbdf46e3e	-0.119350895
43	0x3e232045	0.15930279
44	0x3e39cdbc	0.18144888
45	0xbdd77564	-0.10520437
46	0xbd5595d4	-0.05214484
47	0x3e72be87	0.23705493
48	0xbd2a2ce3	-0.041546714
49	0xbdd7bbde	-0.1053388

layer3.weight f4 [3, 50]
0	0x3e47c33c	0.1950807
1	0xbdca7e1a	-0.09887333
2	0x3e2f6c85	0.1713124
3	0x3e6cdc39	0.23130883
4	0x3e13a4d5	0.14418347
5	0x3df31bdb	0.118705474
6	0xbde29d4f	-0.110651605
7	0x3e2be507	0.16786586
8	0x3e1c830e	0.15284368
9	0xbe500c45	-0.2031718
10	0xbe92fb29	-0.28707245
11	0xbe39b28d	-0.18134518
12	0xbe135d41	-0.14391042
13	0xbe721fd4	-0.23644954
14	0xbe6e37c1	-0.23263456
15	0x3e2e733f	0.1703615
16	0x3e14a201	0.14514925
17	0xbde77437	-0.11301463
18	0x3d76f1dd	0.060289253
19	0x3e03a7d8	0.12856996
20	0xbd546c55	-0.051861126
21	0xbdb53de4	-0.08849695
22	0xbe74bf7b	-0.23901169
23	0xbe05d725	-0.13070352
24	0xbcab20b5	-0.02088962
25	0x3d6996c3	0.057028543
26	0x3dbd86b8	0.09254211
27	0xbe58750b	-0.21138398
28	0x3e3e63be	0.18592736
29	0xbdcdd268	-0.100498974
30	0xbddd1fe4	-0.10797098
31	0x3e07b25f	0.13251637
32	0x3df405d6	0.119151756
33	0x3e16b402	0.14717105
34	0xbdb930cf	-0.090425126
35	0x3e686c42	0.22697547
36	0xbe0316d4	-0.12801677
37	0x3e029d8b	0.1275541
38	0x3e526dfc	0.20549768
39	0x3ddd1075	0.107941546
40	0xbda4f610	-0.08054745
41	0xbdc21ff6	-0.09478752
42	0xbddf48e4	-0.10902575
43	0x3e1f5c15	0.1556247
44	0xbe858019	-0.26074293
45	0xbd2f8162	-0.042848
46	0xbd7e483b	-0.062080603
47	0x3e51fa5f	0.20505665
48	0xbced505b	-0.02896898
49	0xbda75686	-0.081708
50	0x3e12368d	0.14278622
51	0xbe90fa9c	-0.283162
52	0xbec44305	-0.38332382
53	0x3e91145a	0.2833584
54	0x3e9bf9d8	0.30464053
55	0xbd33617f	-0.04379415
56	0x3e0de9d5	0.13858731
57	0xbe8946b1	-0.26811746
58	0xbd353f78	-0.04424998
59	0x3e02dee9	0.12780346
60	0x3e78cd88	0.24297154
61	0x3ebcc94f	0.36872336
62	0x3e9e38fd	0.30902854
63	0x3e4fc387	0.20289432
64	0x3ea64d4f	0.32480857
65	0x3dfb9796	0.12284772
66	0x3e4a2d73	0.197439
67	0xbe50dee2	-0.20397523
68	0xbe8c6eae	-0.27428192
69	0x3a208eb4	0.000612478
70	0x3dd23326	0.10263662
71	0x3f151151	0.5822955
72	0x3dedc9b1	0.11610735
73	0x3e5254f6	0.20540223
74	0xbed6a152	-0.41919953
75	0xbeb46d64	-0.35239708
76	0xbca379de	-0.019955572
77	0xbccecf00	-0.02524519
78	0x3e54619f	0.20740364
79	0xbeab3a4c	-0.33442914
80	0xbf07bcf1	-0.53022677
81	0xbe9126b9	-0.28349856
82	0xbe8481a5	-0.2588016
83	0x3e7ac2de	0.24488398
84	0xbec6b70f	-0.38811538
85	0xbdc44d67	-0.09585076
86	0x3dcafc25	0.09911374
87	0x3e8076ef	0.2509074
88	0xbe940353	-0.28908786
89	0x3e01d9c0	0.12680721
90	0x3e9a9e8f	0.30199096
91	0x3db5560b	0.08854302
92	0xbec1b23c	-0.37831295
93	0x3e8b56bc	0.2721461
94	0x3dfe2f1a	0.12411328
95	0xbe189d85	-0.14903839
96	0xbe93cd59	-0.28867605
97	0x3e2750c1	0.16339399
98	0x3df33a99	0.11876411
99	0xbe1ac8de	-0.15115687
100	0x3e0e5aba	0.13901797
101	0x3e6eb436	0.23310933
102	0x3e863441	0.26211742
103	0xbe972713	-0.29522
104	0xbe2e9514	-0.17049056
105	0xbdf59b6d	-0.11992536
106	0x3e5019d6	0.20322356
107	0xbdf00c46	-0.11721091
108	0xbe8432ab	-0.25819907
109	0x3e59aa5e	0.21256396
110	0x3e58f2d4	0.21186382
111	0xbeb61595	-0.3556334
112	0xbe8ac250	-0.27101374
113	0x3e65e097	0.22448955
114	0x3e1d183f	0.1534128
115	0x3e66e7f7	0.22549425
116	0xbe776dc2	-0.24162963
117	0x3e8fd3a6	0.28091162
118	0xbde99260	-0.11404872
119	0x3e0dac51	0.13835265
120	0x3da0b3cb	0.07846793
121	0xbe8c48f6	-0.27399415
122	0x3e3008c0	0.17190838
123	0xbe833807	-0.25628683
124	0x3e91190b	0.2833942
125	0x3e53f922	0.20700505
126	0x3d991af2	0.074758425
127	0x3e6e798f	0.23288558
128	0x3d532a30	0.051553905
129	0x3e12e9e1	0.1434703
130	0x3ed4c407	0.41555807
131	0xbe22e333	-0.15906982
132	0xbddf260f	-0.10895931
133	0xbe62acc7	-0.22136222
134	0x3e6eed65	0.23332746
135	0x3d7b3896	0.06133326
136	0x3ce1970a	0.027537841
137	0x3db1ed1d	0.08687804
138	0x3e83520d	0.25648537
139	0xbe9fac40	-0.31186104
140	0x3df00e55	0.117214836
141	0x3c719d62	0.014746996
142	0x3e077e21	0.13231708
143	0xbe731f0d	-0.23742314
144	0x3e84265d	0.2581052
145	0xbddba35c	-0.10724518
146	0x3e78efc8	0.2431022
147	0xbe4b31e5	-0.19843252
148	0x3e03a127	0.12854443
149	0x3c0c3990	0.008558646

layer3.bias f4 [3]
0	0x3e212994	0.15738517
1	0x3e790cfe	0.24321362
2	0x3d64b68e	0.05583816
